modelo_classificacao.pth (torch, 395202 bytes, 12 tensors)

conv1.weight f4 [14, 3, 3, 3]
000000 a1 71 fe 3d 03 48 26 3e 94 e1 30 bd 04 02 2f 3e
       0.12424017 0.16238408 -0.043183878 0.17090613
000010 ef a9 9b bc 6b ca 6b 3d 13 e8 fa bd d7 04 e7 3d
       -0.01900193 0.057566088 -0.12251296 0.1128022
000020 70 45 2c 3e 28 05 28 be 0d 01 2e 3e c0 52 1b 3d
       0.16823363 -0.16408217 0.16992588 0.037920713
000030 0e 93 0b 3e 96 a3 49 3d 3e 69 e4 3d 28 56 65 bd
       0.13630316 0.049228273 0.11152886 -0.055990368
000040 0c b1 17 3e cf 66 dd 3c eb e3 e6 bd fd c7 53 3d
       0.14813632 0.027026562 -0.11273941 0.051704396
000050 9e b2 b1 bd c1 11 e9 bc 50 48 61 bd 16 e9 15 3e
       -0.08676647 -0.028450849 -0.055000603 0.14639696
000060 b7 11 39 be 29 27 b6 bd fa 66 64 bd 63 b4 14 be
       -0.18073164 -0.08894188 -0.05576227 -0.14521937
000070 f2 cd 5e ba 55 4d 52 be c0 21 2e 3e 83 5d 1d be
       -0.0008499316 -0.20537312 0.17005062 -0.15367703
000080 ca 7e 24 3e f6 5e 54 3d 63 22 fa bc be 5e 1b 3e
       0.16063991 0.051848374 -0.030533975 0.1517286
000090 60 1b 00 3a d5 c0 0b 3e fd 40 bc 3b d5 fc 83 bd
       0.00048868917 0.13647778 0.005745052 -0.06444708
0000a0 63 f3 7b 3d 5d 5b 24 bd 92 78 ce 3d 78 ab 50 3e
       0.06151141 -0.040126193 0.10081591 0.2037791
0000b0 42 82 13 3e 43 bb e8 bd c3 94 bc 3d 4c cd 9c 3c
       0.14405158 -0.11363842 0.092080615 0.019140862
0000c0 40 78 c0 3d d4 26 dc bd 3c ba 36 be f0 5e 5f bd
       0.09397936 -0.107495934 -0.1784448 -0.0545339
0000d0 84 de ec bd 52 4b 43 3e 0e b0 0c 3e 83 6b c3 3d
       -0.11565879 0.19071701 0.13739035 0.095419906
0000e0 fd 23 de 3b 25 6c 8e 3d 98 c6 21 3e 49 ff 50 be
       0.0067791925 0.06954221 0.15798414 -0.20409884
0000f0 1f 84 95 3d a6 67 0b be 6a 01 9e bc 7b 79 80 3c
       0.07300591 -0.13613757 -0.019287784 0.015682926
000100 d5 ee 98 3d f2 e1 c0 bd ec 15 6e 3e 1d 83 da bd
       0.074674286 -0.09418096 0.2325055 -0.10669539
000110 3b 82 3a be 6f c1 5c bd d0 5a 2c 3e 50 80 6d bc
       -0.18213741 -0.05389541 0.16831517 -0.014495924
000120 13 c7 88 3e 20 8e 12 be cc d9 7a be 6b 14 9f bd
       0.26714382 -0.14312029 -0.24497145 -0.07767566
000130 bd 09 fa bd e6 79 2d 3c 68 ea 04 3e 16 da 1e 3e
       -0.12208889 0.010588145 0.12980044 0.1551288
000140 e0 49 36 be 66 e1 f9 bd 7e ba 1a 3e 71 d7 71 3d
       -0.17801619 -0.122011945 0.15110204 0.05904335
000150 06 c9 75 3d 20 e4 99 bd b3 6a 24 3e e2 62 58 be
       0.060006164 -0.075142145 0.16056328 -0.21131471
000160 79 4f 0c be 45 a3 af 3d b0 41 4c 3d f6 c8 9c b8
       -0.13702191 0.08576063 0.049867332 -7.4760916e-05
000170 81 ca 80 3e 90 9e 97 3d 1e 17 2d be 20 19 56 bd
       0.25154498 0.0740329 -0.1690335 -0.052270055
000180 1f 5b ea 3d 68 b6 d6 bd 08 82 28 bd 64 47 35 be
       0.11443161 -0.1048401 -0.041139632 -0.17703015
000190 55 c0 7a bd 26 58 3d 3e de 57 a8 bd 12 3b 2d be
       -0.06121858 0.18490657 -0.08219884 -0.16917065
0001a0 5a 3a 61 3d 68 e2 45 be 2f 0d 50 be 03 90 a1 bd
       0.05498729 -0.19324648 -0.20317529 -0.07888796
0001b0 90 39 18 be 45 5e a9 bd 00 d0 87 3e 17 fc 0a 3d
       -0.14865708 -0.082699336 0.2652588 0.033931818
0001c0 73 70 a3 3d 28 05 fd bd 19 a5 29 be 2e 70 9d bd
       0.07980432 -0.12354499 -0.16566886 -0.07687412
0001d0 c6 71 4d 3d 24 27 19 be 02 75 30 bd f6 62 2d bd
       0.05015733 -0.14956337 -0.043080337 -0.042330705
0001e0 f5 eb f6 ba 2d 5b 51 bd 0d 8c 2e 3d 43 c1 2d be
       -0.0018838631 -0.051112343 0.04261403 -0.16968255
0001f0 ff 63 14 be 28 d9 bc bd 94 d0 3c bd a7 7d e5 bd
       -0.1449127 -0.09221107 -0.046097353 -0.11205607
000200 68 de 6f 3e 4d 58 26 bd 64 8c 3e 3e 69 64 ed 3d
       0.23424685 -0.040611554 0.18608242 0.11591417
000210 a5 17 4f be 8c 82 f6 3d 8a b5 06 bd 19 51 73 bd
       -0.20223863 0.120366186 -0.032887973 -0.059403513
000220 1e 62 35 be 4d aa 7a be 19 a0 cf 3d 80 28 d3 bc
       -0.1771321 -0.24479027 0.10137958 -0.025776148
000230 fa b6 58 3d 75 b1 e9 bd fe 80 1f 3e 8f 5a 29 be
       0.052908875 -0.114108 0.1557655 -0.16538452
000240 d5 87 9a bc e7 de ba 3c da f5 3b 3d 8e 86 4e 3e
       -0.018863598 0.022811366 0.04588876 0.20168516
000250 0f 2d 44 3e 1a ce 32 be 4b f4 bc 3d a3 23 8f bd
       0.19157813 -0.17461434 0.09226283 -0.06989219
000260 32 29 39 bd b2 ca 04 be 20 b3 21 3e cb 62 47 be
       -0.045205303 -0.12967947 0.15790987 -0.1947128
000270 da c0 18 3e 9e d2 ab 3d 3c fa 25 3d f2 a6 76 bd
       0.14917317 0.083897814 0.040521845 -0.060217805
000280 fc 51 40 3e 39 e4 94 3c 45 92 b0 3d 4e 70 cd bd
       0.18781275 0.018175231 0.08621649 -0.10031186
000290 43 fb 14 3e 86 30 f3 bc 71 19 ac bd 21 a5 25 3e
       0.14548974 -0.029686224 -0.0840329 0.16176273
0002a0 ff a9 09 bc 5c 7a 27 be 8d 50 2b be 8c 18 56 3d
       -0.008402347 -0.1635527 -0.16729946 0.052269503
0002b0 3b fc 34 3e a9 56 7e 3c b2 8d e2 bd b4 02 7d bd
       0.17674343 0.015523591 -0.110621825 -0.061770156
0002c0 13 da 16 be 69 ed 8d 3c 33 30 bc 3d b1 8c 80 be
       -0.14731626 0.01732512 0.09188881 -0.2510734
0002d0 7f 68 d9 3d 0f c1 2c 3e f1 f9 cb 3d c4 07 8e bd
       0.10615634 0.16870521 0.09959782 -0.06935075
0002e0 8b 2e d6 3d 62 df c7 3d a3 31 a9 3c d1 25 ba bd
       0.10458096 0.09759404 0.020653551 -0.09089244
0002f0 a6 82 f7 bd 00 5d 2d 3d f1 9c d7 bc 27 55 81 bd
       -0.12085466 0.04232502 -0.026319953 -0.0631507
000300 bd c1 17 3e 38 36 35 3e be 44 c1 bc 7f a5 41 bd
       0.14819999 0.17696464 -0.02359235 -0.04727697
000310 61 7a 67 bc 43 eb 25 bd 80 45 8b 3d fa 58 7c 3d
       -0.0141282985 -0.040507566 0.068003654 0.061608292
000320 03 ee 38 be ef be 3b bd f4 ce 31 3e 1a 3d 90 3d
       -0.18059544 -0.045836385 0.17364103 0.07042904
000330 c5 71 61 bc 45 28 08 be 39 48 16 be 4d 45 1a be
       -0.013760035 -0.13296612 -0.14675988 -0.15065499
000340 83 80 61 bd 40 72 72 3d c7 71 17 3e 59 ac cd 3d
       -0.0550542 0.05919099 0.14789496 0.10042638
000350 ee d8 32 be a7 98 f5 bd 75 c6 41 bd a5 eb 20 3e
       -0.17465565 -0.11992007 -0.047308404 0.15714891
000360 2f 42 ec 3d fc 00 38 3d 0d 10 23 3e 9f be 9c bd
       0.11536061 0.044922814 0.15924092 -0.076535456
000370 63 f1 f3 bd 42 2a 08 3e eb 91 0e be ce d2 a7 bd
       -0.11911275 0.1329737 -0.13922851 -0.08194505
000380 4b 22 7a be 93 83 5d 3e c0 57 76 3e 91 5a 19 3e
       -0.24427144 0.21632223 0.24056911 0.14975955
000390 76 b9 0c be e2 e9 3c be 6c ba 27 be a9 fb bb 3d
       -0.13742623 -0.18448594 -0.16379708 0.0917886
0003a0 10 d5 48 3d 53 7d df 3d 29 dc 40 3e bc e9 12 3e
       0.049031317 0.109125756 0.18833984 0.14346975
0003b0 4e 34 9f 3d 6c 2f 19 be f8 42 23 be 4a 00 40 be
       0.07773648 -0.14959496 -0.15943515 -0.1875011
0003c0 f5 ad dd 3c 00 29 0d be 33 80 bb bd be 31 b3 bd
       0.027060488 -0.13785172 -0.091553114 -0.08749722
0003d0 1e 44 4c bd 09 5f 42 be 87 ea 39 bd 4a 0f d4 3d
       -0.04986965 -0.18981566 -0.04538968 0.10354479
0003e0 4d 61 87 bd c9 52 60 3e bc 9f bb ba 8e 5e 0b be
       -0.066103555 0.2190658 -0.0014314572 -0.13610289
0003f0 f1 42 2f bc c3 5e dd bd 36 eb e7 bd b4 a3 d2 bd
       -0.010697112 -0.1080909 -0.1132416 -0.1028513

conv1.bias f4 [14]
000000 21 bb e1 3c ac a3 d5 be f7 4e 52 3e 45 01 cc be
       0.02755505 -0.41726434 0.20537935 -0.3984472
000010 34 a2 18 3e f2 8d 54 3e f8 2b 01 3e d8 45 83 3e
       0.14905626 0.20757273 0.12614429 0.25639224
000020 59 d9 80 bd ad da fd bc 12 d0 e6 3d 91 15 f1 3d
       -0.06291456 -0.030988062 0.11270155 0.117716916
000030 88 7d 47 be 2d 48 dc bd
       -0.1948148 -0.10755954

conv2.weight f4 [28, 14, 3, 3]
000000 66 40 17 3e 42 54 5e 3d 4e f5 10 bd 2e bc 1f 3d
       0.1477066 0.054279573 -0.03539019 0.03899782
000010 c4 4f 72 bd 0b c3 5a bd 4a aa fb 3d 79 9e fc bc
       -0.0591581 -0.053408664 0.122883394 -0.030837284
000020 29 79 c6 bd 66 b9 2b 3e 13 40 d8 3c b2 f6 9a bd
       -0.09691078 0.16769943 0.02639774 -0.07566585
000030 45 f0 ae 3d 0a 99 97 bd 07 19 37 be 1c 42 74 3d
       0.085419215 -0.07402237 -0.17880641 0.05963336
000040 65 9a a4 bc 51 04 01 bd bf 21 61 3e 36 2d 92 3d
       -0.020093152 -0.031498257 0.2198553 0.071375296
000050 c0 64 2e 3e b3 92 a8 3e 58 3b 46 3e 54 f4 ba 3d
       0.1703062 0.32924423 0.19358575 0.09128633
000060 60 61 84 3e d9 03 32 3e 02 59 9c 3d 08 92 ba bd
       0.2585554 0.1738428 0.076341644 -0.091098845
000070 8e 55 3d 3c b5 37 35 3d b0 62 03 be 64 68 10 3d
       0.011556042 0.04424258 -0.12830615 0.035255805
000080 21 08 f2 3d a5 79 56 bc 86 a4 17 bc 69 48 ad bc
       0.11817957 -0.013090526 -0.009255534 -0.021152692
000090 ac 07 e1 bd b0 d7 8c bc 06 92 a1 3d 71 4f fb bd
       -0.109877914 -0.017192692 0.0788918 -0.122710116
0000a0 58 a9 d5 bd 83 f3 70 3d a1 d5 2b be db b8 a1 bb
       -0.104326904 0.05882598 -0.16780712 -0.0049353666
0000b0 9d 4e c6 bc c7 2d 2f 3e 31 fc a7 3d aa f4 ba 3c
       -0.024207408 0.17107306 0.082023986 0.022821743
0000c0 ef c5 f1 3d fe ff 10 3e c2 a5 35 bc 33 0a 2c 3e
       0.11805331 0.14160153 -0.011086883 0.16800766
0000d0 dd a0 ff 3d df 72 db bd 78 38 ad bc 15 48 80 3d
       0.12481854 -0.10715269 -0.02114509 0.062637486
0000e0 a4 63 14 3e 5f ef 59 bc d0 b6 1b bc ed 05 ab bd
       0.14491135 -0.013301699 -0.009504035 -0.0835074
0000f0 7d c4 0a 3e 6b 27 e0 3d 84 e7 a6 3d 65 84 d4 3d
       0.13551517 0.109450184 0.08149627 0.10376815
000100 b5 06 2c 3d 31 39 f7 3d 49 b4 b2 3d 7c c1 e3 3b
       0.041998584 0.12071455 0.08725793 0.0069505554
000110 57 d7 0c 3d e8 a7 e9 3d 0d fb b6 3d af d3 2c bd
       0.03438505 0.11408979 0.08934603 -0.042194065
000120 e7 b8 8a 3d 41 00 4a bd 6f 3a 84 3c 50 7e 63 bd
       0.067735486 -0.04931665 0.016141145 -0.055540383
000130 56 01 96 3d 6b a5 e7 3d ec cc 7c 3e e9 76 d9 3d
       0.073244736 0.11310848 0.24687546 0.106183834
000140 54 c1 14 3e 5f 9c 3e 3e 10 cd 41 3d d8 36 68 3c
       0.14526874 0.18614338 0.047314703 0.014173232
000150 2a a2 0a 3e ab 3e 49 ba 7d eb bf bd a8 3e 0f 3e
       0.13538423 -0.000767688 -0.09371088 0.13988745
000160 95 34 c0 3d ce db c3 bd 52 12 99 bd 33 cf 29 bc
       0.09385029 -0.09563409 -0.074741974 -0.010364342
000170 ac 48 8d 3b bb 8e c6 bd cc cf 54 3c 79 26 11 3d
       0.0043116417 -0.096951924 0.012988996 0.03543708
000180 ae e8 67 3d 3f 6b 8a 3d af a4 c9 3d 99 6b 6c bd
       0.056618385 0.06758737 0.09845864 -0.0577198
000190 31 42 78 be aa 87 3b be ac ce 21 be 29 c2 a9 be
       -0.24244 -0.1831347 -0.15801495 -0.33155945
0001a0 36 e8 60 be ae 96 a1 bd 7d 68 b0 be 02 01 99 be
       -0.21963581 -0.07890068 -0.34454718 -0.2988358
0001b0 b8 c2 4f bd 87 3c 40 bd 7b e5 89 3d 92 19 bf 3c
       -0.050722808 -0.046932723 0.06733223 0.023327623
0001c0 d6 e5 6e 3d ab 37 bc 3d eb a8 f8 bd 6d 98 90 bd
       0.058324657 0.09190305 -0.121415935 -0.07060323
0001d0 a6 87 e3 3c 38 4e 21 bb 2e 85 26 be 56 6e 60 be
       0.027774643 -0.0024613272 -0.16261742 -0.2191709
0001e0 8e 1f f0 3c 25 66 66 be aa c5 58 be 54 39 d3 bc
       0.029311921 -0.22499903 -0.21169153 -0.025784172
0001f0 5d c3 d5 bd 06 4a 98 be a8 fd 1b 3e 0e 4c ae 3d
       -0.10437653 -0.29743975 0.15233481 0.085106
000200 f0 04 a7 3d c7 c9 80 3d 24 b2 7c b9 9a 6e 9b 3d
       0.08155239 0.06288486 -0.00024098955 0.07589455
000210 4c 26 4f bb 63 a4 1f be b0 b6 14 bd 4b d7 57 3d
       -0.003160852 -0.15590052 -0.036307037 0.052695554
000220 6b 98 4f 3d 1e 3b 50 3d f4 2f 0d bd e1 25 04 be
       0.050682466 0.05083763 -0.03446956 -0.12905075
000230 06 c9 ce bd a4 ae 01 be e8 0e 47 be 3a eb 89 be
       -0.10096936 -0.12664276 -0.1943928 -0.26937276
000240 64 4d 26 be 42 5a 8d bc 30 0f c9 bc db 2f 38 3d
       -0.1624046 -0.017254952 -0.024543375 0.044967514
000250 46 ae 84 bd fd 05 30 bc d3 0b e1 3c 50 d2 53 3d
       -0.064785525 -0.010743615 0.027471459 0.05171424
000260 0c 5a 8c 3d 17 fa 9c bc 1e d7 bf bb 93 3d f3 bc
       0.068531126 -0.01916222 -0.0058545014 -0.029692447
000270 4a a5 aa 3d 4d 67 30 bd 0e 17 b5 bd 43 bd b6 3d
       0.08332308 -0.043067265 -0.08842288 0.089228176
000280 5f bb a4 3b a1 78 ca 3c 22 2e de bc f5 c2 b4 bd
       0.005027219 0.024715723 -0.027121607 -0.088262476
000290 ba 6c 98 bc 12 3a 1d 3d 37 89 52 3d 1b 43 8b 3d
       -0.018606532 0.03838546 0.05140039 0.06799909
0002a0 cf fb f2 3d 52 d5 0c 3e ed 75 16 3d fc 58 e5 bb
       0.11864435 0.1375325 0.036733557 -0.006999133
0002b0 f0 8c b0 3c 4c 8b 46 3d 79 bd b5 bd c5 1b 9f bd
       0.02155158 0.048472688 -0.0887403 -0.077689685
0002c0 96 47 df bd 78 2d 54 bd 34 ab 50 bd 5f 83 f4 bd
       -0.10902326 -0.051801175 -0.050944522 -0.119391195
0002d0 b7 36 d5 3d 3b 70 45 3e 23 cc 56 3e cf db 95 3d
       0.10410827 0.19281094 0.2097631 0.07317316
0002e0 4e e2 8f 3d 3e df da 3d 50 30 bb 3d 5a 06 ce 3d
       0.07025586 0.10687111 0.09140074 0.10059805
0002f0 c8 14 42 3e df 4c 32 bc 34 b5 93 3d e0 4d 18 3e
       0.1895324 -0.010882585 0.07212296 0.14873457
000300 e6 4d 39 3d 9d c1 fc 3c 0e be 2a bd d9 27 c6 3d
       0.045240305 0.03085404 -0.041685157 0.09675569
000310 e1 05 b3 3d 56 71 b7 3d 78 16 d9 3c 1c 60 89 3d
       0.08741356 0.08957164 0.026499972 0.067077845
000320 4b 9d c6 bd b1 a6 a8 3a 7c 6c 1b bd 8f 20 e0 bd
       -0.0969797 0.0012867061 -0.037945256 -0.1094371
000330 8f f2 b5 3d 98 46 16 3d fb e7 2a 3e 42 d9 28 bd
       0.08884155 0.036688417 0.16690056 -0.04122282
000340 ef a3 93 bd 96 2f 03 3d a4 44 55 be b3 d8 00 be
       -0.07209002 0.032027803 -0.20826966 -0.12582664
000350 60 31 24 be 40 6a 49 be 2d db 3a be 20 25 4c be
       -0.1603446 -0.19669437 -0.18247671 -0.19936037
000360 9c c5 ce 3c 7c dc ba 3c bf a4 9b bc ce e3 23 bd
       0.025240712 0.022810213 -0.018999455 -0.040012173
000370 bc d9 8e bd 90 8a 33 3d 1a fe c3 3d f2 59 15 3d
       -0.06975123 0.043833315 0.095699504 0.03646273
000380 0c 6e 76 3c 50 8b d3 bc 28 1e 4a bc 02 d8 de 3d
       0.015040886 -0.025823265 -0.012336291 0.10881044
000390 77 57 3d bd b5 66 d4 bc 18 cb 77 bd 91 33 09 be
       -0.04622599 -0.02592788 -0.06049642 -0.13398577
0003a0 16 a1 ab bd 7c e7 db bd b5 db 57 bd 6b 22 fa bc
       -0.08380334 -0.107375115 -0.052699763 -0.03053399
0003b0 7b 76 32 be 93 27 17 3d ee fc 96 bd c9 a8 b1 bd
       -0.17428009 0.036902975 -0.07372461 -0.08674771
0003c0 36 1f c5 3d d7 17 e8 3d f3 4b 68 bc 8b a5 0d 3e
       0.09625094 0.11332672 -0.014178264 0.13832681
0003d0 a3 a8 69 3d f8 ea 8c 3d ce b6 c4 bc 9f f1 62 3d
       0.05704559 0.06880754 -0.02401295 0.05540621
0003e0 f1 1e b8 3d 68 6d b0 bd 3f 1e f5 3d d9 02 14 3e
       0.089902766 -0.086146176 0.119686596 0.14454211
0003f0 6c 3d c2 bd c5 fa 6a bd b4 3e 72 3c 12 f8 a2 bc
       -0.094843715 -0.05736806 0.014785457 -0.01989368

conv2.bias f4 [28]
000000 1f 14 d3 bd e3 ad 2c 3d f5 fa 5b 3e 52 8e ed 3d
       -0.10306572 0.04215802 0.21482451 0.11599411
000010 e0 e3 71 3e 43 68 65 3a 28 df 2f be 56 71 3f 3d
       0.23622084 0.0008751193 -0.17174971 0.046738945
000020 8e 01 03 be 9b db a2 bc a7 00 97 bc 0d e5 d2 3d
       -0.12793562 -0.019880107 -0.018432928 0.10297594
000030 f5 d6 31 be 0d f4 24 3e 57 fa ed 3d f8 5e 13 3e
       -0.17367156 0.16108723 0.11620014 0.14391696
000040 c9 27 1c 3c 4b be 85 bd a1 a9 45 3d ac 24 ed bd
       0.00953097 -0.06530436 0.048257474 -0.1157926
000050 30 af 31 bd d7 da 5b 3e 53 8d 4f 3e 9d 00 55 be
       -0.043379962 0.214702 0.20268755 -0.20801015
000060 f6 1a 16 3e 50 65 83 3d ef a1 63 3d b9 31 92 3e
       0.14658722 0.06415808 0.055574354 0.2855356

conv3.weight f4 [56, 28, 3, 3]
000000 2c 37 35 3d 3f 27 19 3d 14 a3 e7 3c 70 b7 59 3d
       0.04424207 0.037390944 0.028276004 0.053153455
000010 da d6 26 3d c8 66 3e bd de 2e 3a 3e 7b a5 ba 3d
       0.040732242 -0.04648474 0.18181941 0.09113594
000020 b1 dc a5 bd 77 b1 1a bd b0 ab 47 3c 86 47 97 3c
       -0.08098734 -0.0377669 0.01218693 0.018466722
000030 91 06 97 3c b7 67 89 bc b2 ae 5a 3c 3f 77 01 bd
       0.018435748 -0.016773088 0.013347315 -0.031607863
000040 7d ec 95 bc a6 07 8c 3d 28 e4 67 3c 73 7a ce 3c
       -0.018301243 0.06837396 0.014153518 0.025204873
000050 19 b7 06 be 40 54 e5 bc 9f 77 97 3c 68 34 dc bb
       -0.13155784 -0.027994275 0.018489657 -0.0067201145
000060 c5 82 90 bd 2b 0b 07 bd 03 ed d0 bd 2b 5c 85 bc
       -0.07056192 -0.032969635 -0.102014564 -0.0162793
000070 31 fa a2 3c 3b 1f 12 3d de bf 66 39 d4 05 26 3d
       0.019894691 0.035674315 0.00022005985 0.040532902
000080 32 e7 af 3d 38 29 1b 3d ae d6 79 3d bc 2e 8a 3d
       0.08589019 0.037881106 0.06099575 0.06747195
000090 96 1a 89 39 90 14 02 3d 23 2f 1d 3d 46 11 71 bd
       0.00026150484 0.03175789 0.03837503 -0.058854364
0000a0 5a 2b a4 bd df 6b 08 bd b7 52 e7 bd d3 e5 81 bd
       -0.08016081 -0.033306 -0.112950735 -0.063426636
0000b0 52 00 eb 3a 28 23 75 bd 04 7e a9 bb 83 e8 4a bd
       0.0017929173 -0.05984798 -0.005172493 -0.049538147
0000c0 f3 bf de bc e3 6d a5 bd 13 73 1b bd 32 53 01 b9
       -0.027191138 -0.080776 -0.03795154 -0.00012333391
0000d0 56 93 2f 3d 8e 5d dd bc 8b ac 58 bd 4d b8 21 3b
       0.04286512 -0.02702215 -0.052898925 0.0024676502
0000e0 e4 7c 45 bd f1 34 56 bd fe e0 c9 ba e4 b3 88 bb
       -0.048214808 -0.052296583 -0.0015402136 -0.0041718353
0000f0 fb ce 44 bb 3b 1d 13 be d4 28 3c bc d6 11 96 3c
       -0.0030030597 -0.1436662 -0.011484344 0.018319052
000100 37 8c 17 bd 65 de 86 ba 7d 0a 54 bd 2c ca 5a bd
       -0.036998954 -0.0010289667 -0.051767815 -0.053415462
000110 62 89 bb 3b ca d4 86 be 64 3b 97 bd a8 20 aa bd
       0.0057231644 -0.2633422 -0.07384375 -0.0830701
000120 cc dd b6 bd 78 ce 52 ba e5 41 d2 bd ac 39 2c 3d
       -0.08929023 -0.00080416305 -0.10266475 0.042047188
000130 00 3d 1b bd 7a 60 0a bc 74 24 df bd 1c 39 01 3d
       -0.03789997 -0.008445853 -0.10895625 0.031548604
000140 31 3c 07 bb 2c 0a 3e 3d b7 c5 72 3d e3 d1 0b 3e
       -0.0020635242 0.04639642 0.059270587 0.13654284
000150 a8 24 ca 3c 0d d1 31 bd db 6c af 3c d1 49 b2 bd
       0.024675682 -0.043412257 0.021414211 -0.087054856
000160 7e 12 b4 bd 87 7f a7 bc 03 23 4a 3d f1 eb f7 bc
       -0.087925896 -0.020446552 0.049349796 -0.030263873
000170 d3 ed 83 3d 10 3c d3 3d d0 16 4e 3c 7b bb 69 3c
       0.06441846 0.103141904 0.012578681 0.01426589
000180 e5 e2 93 3d ab e7 35 3d 73 67 f1 bc 6b 23 96 3d
       0.07221011 0.04441039 -0.029468274 0.07330974
000190 af 74 f2 3b 06 da 9f 3c 40 2a 30 3d 48 ea 8d 3d
       0.0073991637 0.019513141 0.043009043 0.06929451
0001a0 51 8e 84 3b 4e 34 26 3d b5 b0 9f bd 19 79 8d 3d
       0.0040452858 0.040577225 -0.07797376 0.06907863
0001b0 3e 26 07 3d ed 35 83 bd e1 59 e7 bb f7 ee 01 bd
       0.032995455 -0.0640677 -0.007060275 -0.031722035
0001c0 3b 8d ee bc 39 87 2b 3d b2 11 9f 3c 01 ee 5a bd
       -0.029120078 0.041877005 0.019417617 -0.053449634
0001d0 cc 59 35 3c b3 88 e6 bd e0 54 a5 3c 02 5f 9f bc
       0.0110687725 -0.11256542 0.020182073 -0.019454483
0001e0 96 d1 9f 3b 7d e9 8f 3c d8 fd aa 3b 1a 90 5e 3d
       0.0048772795 0.01756739 0.005218249 0.054336645
0001f0 38 ca f4 bb 52 29 27 3d 02 48 b3 3d 0e 73 20 3d
       -0.0074703954 0.04081089 0.08753969 0.039172225
000200 ec a6 b4 3c cf e2 7d 3c 23 15 0c 3c 82 1c 82 3a
       0.02205225 0.01549597 0.008549961 0.0009926709
000210 0f ed 0c 3e c0 70 e1 bc 3b c9 25 bd 16 ce 8c 3c
       0.13762306 -0.027519584 -0.04047511 0.017188113
000220 ea cb 05 3e c0 ca 97 3c 81 72 f9 bb 6d 77 03 3d
       0.13066068 0.018529296 -0.007612527 0.032096315
000230 af ba 65 3d 2d 56 f3 bd ac c1 a5 bd ae 09 ac 3d
       0.05608624 -0.11881671 -0.080935806 0.08400284
000240 c4 da 0c bd 18 11 6f bc 4b be 27 be 3d f3 88 bd
       -0.03438832 -0.014591478 -0.16381185 -0.06687019
000250 0f b7 23 bd 58 14 87 3c df 3c 28 bd ef 44 d2 3b
       -0.0399695 0.016489193 -0.041073676 0.006416909
000260 48 11 90 bd ea 98 7b 3d e9 b8 aa bd 12 2d 36 bd
       -0.07034546 0.061425127 -0.0833605 -0.044476576
000270 30 8b 86 ba 00 ad b4 bd 87 73 10 be 29 8e 6c bd
       -0.001026487 -0.0882206 -0.1410657 -0.057752762
000280 0c 85 8f bd 7f 8f b6 bd 0c 1e a7 3b 9f 39 43 3d
       -0.070077986 -0.089140885 0.0051000174 0.047662374
000290 62 e5 8a 3c 60 07 f5 bc ba 45 00 be 66 4b a1 3b
       0.016955081 -0.029910743 -0.12526599 0.0049223183
0002a0 28 b0 fa bd dc 1c 14 be 07 b9 9f bc 5b c6 e7 bd
       -0.122406304 -0.14464134 -0.019497408 -0.1131713
0002b0 75 b9 30 3c 6f f0 f3 bc 5a 4f 1e be b1 39 8b 3c
       0.010786404 -0.029777734 -0.15459958 0.016995283
0002c0 f5 04 1c 3a f2 c8 3e be 29 5f cb 3c 60 cb cf 3d
       0.00059516664 -0.18631342 0.02482565 0.101462126
0002d0 9f 5a 8d bd 29 ac de bd 5f 1b dd bd c3 f4 c6 bd
       -0.0690205 -0.10872681 -0.10796236 -0.09714653
0002e0 86 7a 95 bd ee d0 58 38 30 90 ac bd 54 1f 65 bd
       -0.0729876 5.1692994e-05 -0.08425939 -0.05593808
0002f0 90 15 8b bd 02 ff 17 3c e0 2f f5 3c 76 fc 68 bd
       -0.06791222 0.009277107 0.029930055 -0.05688139
000300 d1 16 7d 3c cf ca 1f bd 28 e7 52 3d 07 db 3c bb
       0.015447334 -0.039011773 0.05148998 -0.0028817074
000310 aa a4 09 3d f0 22 e2 3a 35 a5 f7 3d 9f 4a 9d 3d
       0.0336043 0.0017252844 0.120920576 0.076802485
000320 d1 30 3c bd c1 38 8a 3d 0c 8c 84 3d 4f f8 e6 bc
       -0.045944992 0.06749106 0.06472024 -0.028194575
000330 59 d6 24 bc dc 75 94 bc 7f e9 12 bc c7 26 c5 bc
       -0.01006087 -0.018122606 -0.008966803 -0.024066342
000340 f4 6f bd bc b3 89 13 bc ed 95 89 bd 4d 23 6f 3d
       -0.023124672 -0.009004998 -0.06718049 0.058383275
000350 51 da 3a 3d d9 57 43 be 1e 8a 2d 3d e1 66 a7 3b
       0.04561836 -0.1907648 0.042368047 0.0051086997
000360 7b 06 27 3e c1 3c 02 3e 49 cb 8e 3d d8 3b d1 3d
       0.16311066 0.12718488 0.06972367 0.102164924
000370 71 40 d5 3d 5b 5b a9 bd 6a 29 e6 3d 75 5b 4b 3d
       0.10412682 -0.08269378 0.11238368 0.049647767
000380 ab c8 7d bd 3a 02 b7 bd ef 70 38 bd 97 3c 0a 3b
       -0.06195895 -0.089359716 -0.045029577 0.0021093243
000390 81 75 6b bd 34 74 4d 3c 7c ab 55 bc 70 5b 05 3c
       -0.057485107 0.012539912 -0.013041373 0.008139476
0003a0 0d 14 3a bd 7c 29 20 3d 40 60 ef 3d 58 00 a3 bc
       -0.04542928 0.039102063 0.1168828 -0.019897625
0003b0 2d 09 f4 bd 0d 02 d3 3d c3 25 03 3e 88 9e aa bd
       -0.11915813 0.103031255 0.12807374 -0.08331019
0003c0 d6 8b 8c 3d 86 e5 6a bb 00 c8 61 3c 89 35 83 3d
       0.06862609 -0.0035842373 0.013780594 0.064066954
0003d0 7c 21 4a 3d 70 6e e0 3c 7b 68 94 bc a4 22 34 3d
       0.04934834 0.02739641 -0.018116226 0.04397835
0003e0 45 cf 8f bd bb 97 24 bd 4a d5 07 bd 49 d1 a9 bd
       -0.070219554 -0.040183764 -0.033162393 -0.08291871
0003f0 07 82 ce bd ae 10 19 be df 70 23 3d b5 8c 2f bd
       -0.100833945 -0.14947769 0.039902564 -0.042858798

conv3.bias f4 [56]
000000 b7 f0 91 3d 92 38 a0 bd cb 0c 51 bc 25 d1 ea 3d
       0.07125991 -0.0782329 -0.012759398 0.114656724
000010 87 46 75 bd 79 37 31 be 9b df 29 3d 5d 2c d7 3d
       -0.059881713 -0.17306317 0.041473012 0.105065085
000020 c7 0b 51 bd 06 59 15 be ac 2a bd 3c aa 35 95 bd
       -0.051036622 -0.14584741 0.023091637 -0.07285626
000030 63 4d 25 bc 51 02 6d 3e 03 1b 40 bd 6f 43 6e 3d
       -0.010089251 0.23145415 -0.04690076 0.05816978
000040 83 6c 03 be 48 e6 5d 3d 95 99 82 be d1 c7 20 bd
       -0.12834363 0.05417469 -0.255078 -0.03925306
000050 e6 54 19 be ae 2e 24 be b1 92 6f 3e e8 cb 81 be
       -0.14973792 -0.16033432 0.23395802 -0.2535088
000060 13 31 3b 3e 46 a7 c6 3c bd 57 68 3e bb ab 4e 3e
       0.18280439 0.024249684 0.2268972 0.20182697
000070 64 ed 6a 3e 23 aa 7d 3e 01 6d 46 3e e5 2a dd 3d
       0.2294212 0.24771933 0.19377519 0.10799197
000080 a3 23 8a 3d d0 95 8f 3d 09 9e 31 be 92 52 11 3e
       0.067450784 0.07010996 -0.17345442 0.14191654
000090 a1 cd a2 3e 88 48 24 3e 02 f7 2b bd 5f e4 8d bd
       0.31797507 0.16043293 -0.041983612 -0.06928324
0000a0 8d dd 6a 3e 1f 79 63 3e 20 3b 98 bd 84 a1 47 be
       0.22936077 0.22214173 -0.07433152 -0.19495207
0000b0 90 65 3a 3e 70 07 98 3e 19 28 76 3d 17 f6 ae 3d
       0.18202806 0.29693174 0.060096834 0.08543032
0000c0 12 e9 51 3c 40 21 86 3e 1a f6 13 be 0b 80 46 3e
       0.012811916 0.26197243 -0.14449349 0.19384782
0000d0 3f 8f 89 3e 0b e3 91 bd ce da 42 be 31 d3 4f be
       0.268671 -0.07123383 -0.1902878 -0.20295407

conv4.weight f4 [112, 56, 3, 3]
000000 9b 42 04 bc b7 bb ee 3c 9c 8f b7 3a 9d c0 fc 3c
       -0.008072521 0.029142244 0.0014004591 0.030853564
000010 98 2e 5b bd a7 e6 2f bd ce 60 28 3d 91 16 fe 3c
       -0.053511232 -0.042944577 0.041107945 0.03101662
000020 d9 87 a3 3c 6b 32 3e 3e b4 fa 46 bd 18 47 9f bd
       0.019962238 0.1857392 -0.048578933 -0.07777232
000030 c4 1e a0 bd dc 4c 1f 3d 1c ce 03 3e a8 af 4a be
       -0.07818368 0.03889166 0.12871593 -0.1979357
000040 37 ff 02 3c 05 70 39 3e 1f 48 27 3d ac e0 66 bd
       0.007995418 0.18109138 0.040840264 -0.056366608
000050 bc cf 8d 3c 70 cf e3 bd 8f 0a a4 bb 2e b7 16 3e
       0.01731097 -0.1112355 -0.0050061415 0.14718315
000060 23 36 dd 3d df da fd bd a9 07 bb bc d7 b2 1f bd
       0.108013414 -0.12395262 -0.022830801 -0.038988914
000070 36 c8 18 bd d4 d4 70 ba af e6 40 3d af 1e c5 bc
       -0.03730031 -0.00091869873 0.047094997 -0.024062483
000080 e0 19 87 bd 77 60 e5 3d 40 d2 d8 3c 31 92 b9 3b
       -0.06596732 0.1120004 0.026467443 0.0056631793
000090 e5 f7 67 3d b2 98 5f 3d bb c1 1b bc ba 8f 0a 3d
       0.056632895 0.05458898 -0.009506638 0.033828475
0000a0 45 df 2b 3d d0 96 be 3d bd 3c 54 3d 18 d7 9d bc
       0.041960973 0.09306109 0.051815737 -0.019267604
0000b0 b6 28 ca bd 8c dc af bb 96 f2 0c 3d 09 07 67 bd
       -0.09871046 -0.0053668674 0.034411035 -0.056403194
0000c0 21 7a 94 3d 93 9d a9 bc 52 05 b5 3c 74 dd eb 3d
       0.07249857 -0.02070502 0.022097263 0.11516848
0000d0 aa 06 38 be 88 4b a9 bd 3b dc 76 3d 74 93 82 bd
       -0.17971292 -0.082663596 0.060268622 -0.06375781
0000e0 2b 40 bc bd 33 9a 01 3e 60 9f 2e bc fb b4 a0 3d
       -0.091919266 0.12656479 -0.010658115 0.07847019
0000f0 77 1a 18 3d 26 86 5f bd 41 dd 11 bd 0d 26 62 bd
       0.037134614 -0.054571293 -0.035611395 -0.05521207
000100 bd 93 01 3d 4a f5 3c 3d 00 71 a6 bd 2a cf e9 bc
       0.031635035 0.046132363 -0.08127022 -0.028541166
000110 f7 ef d9 3d 95 e7 2b 3e cd 9a 35 bb 61 7d 92 bd
       0.10641473 0.1678756 -0.0027710677 -0.071528204
000120 a3 1f ad bc ae a1 7f 3c 43 c5 af bc d4 19 32 3c
       -0.02113325 0.015602512 -0.021456366 0.010870416
000130 74 ba 2a 3d 04 e3 e5 bc f1 55 19 bd 27 65 63 bb
       0.04168172 -0.028062351 -0.037435476 -0.0034697743
000140 77 54 be 3c 3f 24 08 be 2c 45 95 3d 16 93 51 3c
       0.023233635 -0.13295077 0.07288584 0.012791416
000150 07 a9 d9 bb da e5 31 3d a6 9a e2 3c 4b 94 76 3e
       -0.006642464 0.043432094 0.027661633 0.24080007
000160 15 a1 3b be 8c b9 c2 bc d7 1d 28 bd f3 fc 6e bd
       -0.18323167 -0.023770116 -0.041044082 -0.0583467
000170 05 04 89 bd ce 14 e6 3d e0 16 9b bd ce a4 5d 3d
       -0.0669022 0.11234437 -0.075727224 0.054112248
000180 a1 e0 02 bc f9 ca ac bd 19 f8 1c bd ce 8c f2 3d
       -0.007988126 -0.084371515 -0.038322542 0.118432626
000190 cf 8f f6 bb ea a3 8f bd 97 1d 3e bd 2e 48 51 3d
       -0.0075244675 -0.07013686 -0.046414938 0.051094227
0001a0 4d fc 34 3e fa dd 7b bd 93 37 d8 bd 74 35 48 3c
       0.1767437 -0.06149099 -0.10557475 0.0122197755
0001b0 25 6e 55 3d d9 f9 39 3d 2f 72 82 bd 33 ae a9 3d
       0.052106995 0.04540429 -0.06369435 0.08285179
0001c0 ff 98 80 bc 7d b6 12 3d 86 09 94 bc 19 40 f7 bc
       -0.015697954 0.035818566 -0.018070947 -0.030181931
0001d0 3d c6 51 bd de 27 18 3c a8 8a bc bd d3 f7 03 bd
       -0.051214445 0.009286849 -0.09206134 -0.032218765
0001e0 07 a1 34 3d c9 5a 57 3d a1 18 7c bc fd 0a e2 bc
       0.04409888 0.052576814 -0.015386731 -0.02759313
0001f0 30 83 97 bc b1 f8 21 bd 9a d6 85 3d c1 b9 ad 3d
       -0.018495172 -0.03954381 0.065350726 0.08482695
000200 a6 13 3b bd 29 7c c5 bd 0c ba 82 bc ca 71 14 3e
       -0.045673035 -0.09642822 -0.015957855 0.14496532
000210 45 be 0e 3d 68 4d 2f bd bc 53 f0 bd a9 49 54 bd
       0.034849424 -0.04279843 -0.11734721 -0.05182806
000220 d8 d1 41 bd 14 a6 6a bd 5c 6c 85 bd 97 7d 60 bd
       -0.047319263 -0.05728729 -0.065148085 -0.05480727
000230 ca 20 f4 3d 59 71 0c 3e 8d a2 54 be b4 71 c5 bc
       0.119203165 0.13715114 -0.20765133 -0.02410207
000240 6e 71 9f 3d 63 25 f3 3d 4d 46 34 bb ef 78 23 bd
       0.07785307 0.11872365 -0.0027507723 -0.039910253
000250 b0 8f d7 bc 78 21 3e 3e db 13 25 3b a5 ef de bd
       -0.026313633 0.18567455 0.0025188837 -0.10885552
000260 66 fc ce bd bb c9 90 3c 84 be 43 bd 6f 45 0c bd
       -0.10106735 0.017674318 -0.04778911 -0.034245905
000270 f0 52 ab 3b 4b 30 7f bd 5d 9a ba 3c ee c4 1a 3d
       0.005228393 -0.062301915 0.022778684 0.037785463
000280 7f a0 c1 bd f1 6b 29 3c ab 22 8f 3d df 25 a1 3c
       -0.0945444 0.010340677 0.06989034 0.019671379
000290 66 17 d8 bd a5 fa 0b be d1 6c 2e 3c 8f 64 09 3e
       -0.10551338 -0.13669832 0.010646061 0.13417266
0002a0 c9 61 84 be a6 72 1b be f7 93 6c 3e 45 70 13 3e
       -0.25855854 -0.15180454 0.23103319 0.14398296
0002b0 eb d9 23 3d 06 38 50 bd f8 b2 eb bc f7 3b 90 bc
       0.040002745 -0.050834678 -0.028771862 -0.017606718
0002c0 9b 20 24 3e 4e e3 03 be ba 54 bf bd f9 33 66 bd
       0.16028063 -0.12879679 -0.09342332 -0.05620191
0002d0 89 28 ce 3d 50 b5 ac 3d 86 9c 0d bd d9 3f e5 3c
       0.10066325 0.0843302 -0.0345731 0.027984546
0002e0 b7 0e 89 bd 64 4e dc ba 71 b3 21 3c 9a 6c b1 bd
       -0.0669226 -0.001680803 0.009869442 -0.08663292
0002f0 38 43 3c 3d d6 8e ff 3c 36 42 14 bc db 53 09 be
       0.045962542 0.03119604 -0.009048989 -0.13410895
000300 28 39 96 bd e6 31 81 be 66 82 18 bb ce 7f 90 3c
       -0.073351204 -0.25233382 -0.0023271083 0.017639067
000310 c0 70 9c bd ec 9c 52 3e 0a 83 21 3d 51 de 6d 3b
       -0.07638693 0.20567673 0.03943161 0.003629584
000320 31 9f 56 3b 78 7e 1f 3c d8 fd f9 3c 1c 15 49 3c
       0.0032748694 0.009734742 0.03051655 0.012273099
000330 50 dd a5 3d 5e bc 59 3c 78 4f 28 be 17 31 9a 3d
       0.08098853 0.013289539 -0.16436565 0.075288944
000340 cb de 80 3d c5 e8 d6 bd 04 bb a0 bd f4 c7 78 bd
       0.062924944 -0.10493616 -0.078481704 -0.060737565
000350 4f c1 9b 3d b0 80 77 b9 ec 64 cc bd a8 05 f6 bb
       0.0760523 -0.00023603695 -0.09980187 -0.0075079985
000360 b6 28 90 3d 03 ac 10 3e 64 44 b9 3d 09 21 75 bb
       0.07039015 0.14128117 0.090462476 -0.0037403724
000370 f7 6d 0e bd 46 e9 95 bc c4 60 9d 3c 5e 23 80 bd
       -0.03477284 -0.01829971 0.01921118 -0.06256746
000380 e8 e8 ef bd 89 23 44 bc 95 c1 1e 3d 23 b2 a0 3c
       -0.11714345 -0.011971363 0.038758833 0.019616192
000390 e0 51 5b bc a8 60 07 bd 5f 86 8e bb 6c f3 1a bd
       -0.01338622 -0.033051163 -0.0043495144 -0.0378298
0003a0 56 a5 40 bd d9 4a b3 3c fa cc 27 bc 18 68 c9 bc
       -0.047032677 0.021886276 -0.010241741 -0.024585769
0003b0 a9 51 38 3c e6 7a a1 3d 58 90 2e bd c6 fe 5f 3d
       0.011249938 0.07884769 -0.042618126 0.05468633
0003c0 18 e2 4a 3c 1d 47 22 bd 3f 67 cc 3b 7a 67 24 bd
       0.0123830065 -0.0396186 0.006237894 -0.040137745
0003d0 67 bf cc 3d 76 a5 0f 3d a0 8f b7 3d 7f 38 da 3d
       0.099974446 0.035069905 0.08962941 0.10655307
0003e0 e7 b5 38 bc 8d 98 80 3d 0a 63 ca bc 84 56 c0 bd
       -0.011273838 0.06279097 -0.024705429 -0.093915015
0003f0 7a 18 fe 3b 85 93 a7 3c 54 e3 02 3d 2f 3b a3 3a
       0.0077543827 0.020456085 0.03195508 0.0012453551

conv4.bias f4 [112]
000000 7d f6 37 be 9d ee 82 3e a5 d4 3a bd 7c fa eb 3b
       -0.17965122 0.25572672 -0.04561295 0.007201491
000010 b2 a6 3f 3e 46 81 32 3e d6 29 33 3c 46 b6 fc bd
       0.18715933 0.17432126 0.010935267 -0.123394534
000020 86 1f 8c bd cf 8c 01 bd db 71 23 3e 11 a6 a3 bd
       -0.0684195 -0.031628426 0.15961401 -0.07990659
000030 47 09 5c be 26 54 0c 3e 78 0d 4a 3e 62 54 42 be
       -0.21487914 0.13703975 0.197317 -0.18977502
000040 9b 94 d9 ba c7 8a 9e 3c 3d b8 2f be 6f 72 64 bd
       -0.0016600074 0.019353284 -0.17160125 -0.055773195
000050 11 4e d0 3c cb 0e e1 bd 71 39 3f 3e 28 2b 65 3e
       0.02542785 -0.1098915 0.18674256 0.22379744
000060 8b 1f 80 3e 27 e9 62 3d 79 37 7c 3e 36 97 8d 3e
       0.25024065 0.055398133 0.24630536 0.27654427
000070 c3 02 a3 bc fe ba 54 bd f9 86 72 3e a1 e0 65 3e
       -0.019898778 -0.051936142 0.236843 0.2244897
000080 1b d2 1e 3e 5d 4e 45 3e 63 ab e2 3d d4 25 a0 be
       0.15509836 0.19268174 0.11067846 -0.3127886
000090 23 79 ce 3b 47 4a bc bd 72 85 6e 3e 03 94 1b be
       0.0063010617 -0.09193855 0.23293093 -0.1519318
0000a0 61 c4 26 3e d0 98 15 be fb ce a1 bd 34 8a dd 3d
       0.1628585 -0.14609075 -0.079008065 0.10817376
0000b0 93 d1 01 3e 90 16 45 3e fb 4d 58 3d 5a b6 c1 bb
       0.12677602 0.19246888 0.052808743 -0.0059116306
0000c0 b6 2f 3f 3e a8 ad 93 bd af 41 ca 3c c0 15 84 bd
       0.18670544 -0.07210857 0.024689524 -0.06449461
0000d0 c8 f7 8e 3e 6a 79 38 bd 4a 6c 77 3e 8d 94 2d bc
       0.27923417 -0.045037664 0.24162403 -0.010594499
0000e0 7f 29 a6 bb 75 7c 57 3e 62 33 cc 3d 70 04 75 3e
       -0.0050708647 0.2104357 0.09970738 0.23927474
0000f0 c2 84 2e 3e 4b 94 fe 3c 8c 03 6c 3e f9 8b 8a bd
       0.1704283 0.031076571 0.23048228 -0.06764979
000100 6c bd 9a bd fb 7c c9 3c 42 74 44 3e 80 7b 05 be
       -0.075556606 0.024595728 0.19184974 -0.13035393
000110 a5 41 41 3e b7 a7 fb 3d e3 6d 81 3e 3a fb 77 3d
       0.18872698 0.122878484 0.2527915 0.060542323
000120 a2 2d 8b bd df f2 45 3e 3c 9f 09 3d 5f 43 43 bd
       -0.06795813 0.19330929 0.033599123 -0.047671672
000130 99 5e 41 bd 57 26 fe 3d b6 4f 7a 3e a7 02 da bc
       -0.047209356 0.124096565 0.2444447 -0.026612593
000140 1e 33 60 bd ce 71 20 3e c0 33 af 3c 54 bc 8e be
       -0.05473625 0.15668413 0.021386981 -0.27878058
000150 6f 8a 92 bd b4 29 e4 3d 08 27 a7 be 09 9d 81 bd
       -0.0715531 0.11140767 -0.32646966 -0.0632878
000160 f5 6a 52 3e 35 60 6c bd 74 ec 82 3e 22 35 af bb
       0.20548613 -0.057708938 0.25571024 -0.00534691
000170 59 aa 48 bd 7e 60 59 bd ad 67 e4 bc fb da 72 3c
       -0.04899058 -0.053070538 -0.027881468 0.014822717
000180 1d 07 9f bd bd 4d 70 bd 6b b5 01 3d 4e 86 40 be
       -0.077650286 -0.058667887 0.031667154 -0.18801233
000190 ec 2e 35 3e 55 88 8a 3d 63 9a 5e 3e 2d 2d 58 bd
       0.1769368 0.067642845 0.21738581 -0.052777458
0001a0 cd db 1e be a0 b5 6d 3b af 64 36 bd 20 7a 8d 3e
       -0.15513535 0.0036271587 -0.044529613 0.27632236
0001b0 42 4c dc 3c 6b 81 62 3e c9 eb b6 bd 5c 81 ec bc
       0.026891831 0.22119682 -0.08931691 -0.028870277

fc1.weight f4 [50, 448]
000000 79 56 78 3c af 24 e6 bb 8e e7 61 bb 66 05 32 bd
       0.015157335 -0.007023416 -0.0034470293 -0.04346218
000010 22 c3 40 3b db 5d 77 bb cf b4 f6 bc ca 11 4b bc
       0.0029413183 -0.0037745151 -0.030115513 -0.012394378
000020 12 38 12 3d 68 7b fe 3c 6a c0 b1 3c 57 95 24 3d
       0.035698004 0.031064704 0.021698195 0.040181484
000030 38 13 b7 bc 8d 07 9f 3c cb 19 bb 38 cc 8c 28 3d
       -0.022348031 0.01941278 8.921659e-05 0.0411499
000040 f4 2d 19 bb 18 7d b8 bc 01 db 11 3d 43 08 03 bd
       -0.0023373337 -0.022520587 0.03560925 -0.0319903
000050 f7 79 ff bc e2 f8 b4 bc b9 d9 b4 3c 1b a5 68 bc
       -0.031186087 -0.022091333 0.022076475 -0.01419952
000060 fc 2d 27 bd 9f 57 75 bd 8b 06 27 bb ef 7f 17 bd
       -0.04081534 -0.059898015 -0.0025486078 -0.03698724
000070 e4 4e b9 bb 8e 9d 01 bd dc e2 b6 bc 46 0c a2 3c
       -0.0056551564 -0.031644396 -0.022324972 0.019781243
000080 47 d8 fc b6 c0 c7 dc ba 96 c0 0c 3d 29 17 18 bb
       -7.5353632e-06 -0.0016844198 0.03436335 -0.0023207164
000090 5d 18 88 bd fc 4e 02 bd 78 db 90 39 89 bd a8 bc
       -0.06645272 -0.031813607 0.00027629337 -0.02059819
0000a0 58 1a c7 3c ba 55 2f 3c 2a 15 8a 3c f8 6d 27 3d
       0.024304554 0.010701591 0.016855795 0.04087636
0000b0 b9 ee d8 3c 86 37 35 3b d6 d3 52 bc 83 c1 42 bd
       0.02648102 0.0027651503 -0.012867888 -0.04754783
0000c0 de 71 5f 3c 7b e9 41 bd e1 c5 23 bd 8b b3 1a bd
       0.013637988 -0.047341805 -0.039983634 -0.03776888
0000d0 52 04 dd bc fc d6 04 3c d2 39 0c bd 0d bb 13 bc
       -0.0269796 0.008107897 -0.03423483 -0.009016764
0000e0 cc 9a 53 bc 16 b8 fe b7 6c ef e2 bc 1e e1 f2 bc
       -0.012915324 -3.0364881e-05 -0.027702056 -0.02964836
0000f0 f8 71 4c bd ef b6 46 3c 22 bf 9b 3b 49 e5 fd bc
       -0.049913377 0.012128576 0.0047530094 -0.03099312
000100 59 97 8d bc a0 ef 2d bd 36 5c 11 bd bf 2d 46 bd
       -0.017284082 -0.042464852 -0.03548833 -0.04838347
000110 87 92 32 3d 3d 3c 1a bd 7f 0d 8e 3c 06 9e 32 bd
       0.04359677 -0.037655104 0.01734042 -0.043607734
000120 d1 68 7e bb 17 82 ba 3c 55 2f 68 bd 3f 6c 35 bd
       -0.00388198 0.02276711 -0.056685764 -0.044292685
000130 2e 8a 3f 3b a0 de 5b 3c 18 8f 21 bd 44 eb 2a bd
       0.0029226649 0.013419777 -0.039443105 -0.041728273
000140 1b 44 29 bd 8e d9 0c bc ba 78 f8 bc 4b fd c0 bc
       -0.041324716 -0.008596791 -0.030331004 -0.02355828
000150 a4 58 fb bc 2d f1 5c 3c 1a d0 d5 3b cc 98 fd 3c
       -0.030681916 0.013485235 0.006525052 0.030956648
000160 a7 d7 23 3d 3a ca 75 3c b4 e1 e4 3c f1 74 ee 3c
       0.040000584 0.015001828 0.027939655 0.029108496
000170 a0 8c 4e bd 32 7b 12 3c 94 ed 42 bc 19 f5 e4 3b
       -0.05042708 0.008940505 -0.011897463 0.0069872257
000180 ab 97 54 bd 73 dc da bc 3c ef 29 bb ab 93 29 bd
       -0.051902454 -0.026716447 -0.0025929948 -0.041400593
000190 41 90 b1 bc a6 b8 02 3d 3f 48 d3 bb b5 bb 3c 3b
       -0.021675231 0.031914376 -0.0064478214 0.0028798406
0001a0 38 e2 18 3d 0a 1a 25 3c 9f a4 84 3c c1 6f dc bc
       0.037325114 0.010077009 0.016191779 -0.026908757
0001b0 44 75 32 bd 75 89 36 bc a5 3e 68 3b 36 ce 27 bb
       -0.043568864 -0.011141171 0.003543773 -0.002560509
0001c0 6e 34 0a bd 42 32 b3 3c 9f 2d b9 3c 44 89 cc 3c
       -0.033741407 0.02187455 0.022604762 0.024967797
0001d0 06 47 cf 39 f0 b6 91 3c 23 6f c0 bc 2d 3a 00 3d
       0.00039535033 0.017787427 -0.023490494 0.03130548
0001e0 23 6e 94 3c a0 5a f4 3c d6 6c 60 bc 74 01 77 3c
       0.018118924 0.02982837 -0.0136978235 0.01507603
0001f0 e6 81 f7 ba 9c 81 6f 3b a9 02 30 bd 6b b5 19 3c
       -0.0018883317 0.003654576 -0.042971287 0.009381632
000200 ca 0d 4e 3c 24 20 29 bc 62 88 83 3c 0d 10 da 3c
       0.01257653 -0.010322604 0.016056243 0.026618982
000210 a5 32 fb bc 22 9c 3a bd ce e6 04 bc 65 5d 0a bb
       -0.030663798 -0.045559056 -0.008111669 -0.0021112796
000220 93 78 a7 3c 7f 82 1c bd 3a 03 b8 bc 31 8b 8d bc
       0.020443236 -0.03821039 -0.022462476 -0.017278286
000230 7d 71 8e bc a0 b0 21 3c aa 5e 5a bc 51 57 1c bc
       -0.0173881 0.009868771 -0.013328234 -0.009542302
000240 cb b5 38 bd cf 80 e7 ba 3a 05 c7 3b 00 8a 64 3c
       -0.045095246 -0.0017662289 0.006073621 0.013948917
000250 d5 b2 a4 3c b5 a6 27 3d 3f df 47 bc 8e ab 99 3c
       0.020104805 0.04093047 -0.012199222 0.018758561
000260 52 0d 4b bd f9 0b 10 bd d5 91 6d bd f0 96 ad bc
       -0.04957325 -0.035167668 -0.058000404 -0.021190137
000270 f0 ba 28 bd 5f c3 1f bd 1f 79 1d bd be 55 f3 3c
       -0.041193902 -0.03900468 -0.03844559 0.029703971
000280 9c 30 f4 3c 10 52 23 3d 53 cc 37 bb 2f 43 87 bc
       0.029808335 0.039873183 -0.002804537 -0.016511528
000290 3d a3 84 bb 19 f8 9b 3c 5e 16 0b 3d c5 85 08 bb
       -0.00404778 0.0190392 0.033956878 -0.0020831686
0002a0 07 88 42 bd 1a 44 0c bb 29 e2 1c bc 27 57 e4 bc
       -0.047493007 -0.0021402896 -0.009575405 -0.027873589
0002b0 09 ed 1f 3c a0 7b 3d 3c f6 04 1e 3c 25 6c 23 bd
       0.009761103 0.011565119 0.0096447375 -0.039898057
0002c0 78 63 3b bd 84 6e d9 3c ce 16 58 bd e5 de 7c 3a
       -0.045749158 0.026541956 -0.052756123 0.0009646251
0002d0 29 38 60 3c 9b 9d 3e bc ab 0b 32 bd db 1d b6 3c
       0.013685265 -0.011634256 -0.04346816 0.022231033
0002e0 4e 1f 1e 3b b5 5e 43 3b 0f 34 b4 3b 62 73 7b bc
       0.0024127546 0.0029811088 0.00549937 -0.015347334
0002f0 7d b0 27 3d d7 ec c0 3c 3d 7c a9 ba 8b 76 34 bd
       0.040939797 0.023550434 -0.0012930703 -0.044058364
000300 f8 63 c5 bc 32 69 a6 3c c3 86 63 bb f1 3d a2 bc
       -0.02409552 0.020313833 -0.0034717775 -0.019804927
000310 fa 06 21 3c e3 78 cc bc 62 db 05 bd 66 32 6a bd
       0.0098283235 -0.024959987 -0.032679923 -0.05717697
000320 eb 76 23 3d 31 5f b3 bc e6 ce be 3c d7 79 30 bc
       0.03990833 -0.021895977 0.023292016 -0.010771236
000330 a0 a0 1e 3d 72 a1 48 bc ec 5d da bb 13 ac ab bc
       0.038727403 -0.012245523 -0.0066640284 -0.020956075
000340 7c 9c c3 bc 1f 17 69 bc ca 4b a3 bc 4b 1a c6 3b
       -0.023878329 -0.014226704 -0.0199336 0.006045615
000350 7b 3c 05 bd 11 49 d2 3c 97 8c 3b bd fa 29 4f 3c
       -0.03252838 0.025669606 -0.045788374 0.012644285
000360 78 ae 05 bd 8d 67 f6 ba 2b cc 83 bc 94 c9 74 bd
       -0.03263709 -0.0018799171 -0.016088566 -0.059762552
000370 7d a6 1b bc 2d 86 19 3d 42 73 3c bd 1e d0 c6 3c
       -0.009500143 0.037481476 -0.046008356 0.02426916
000380 32 1f 62 bc 5f 88 b5 bc da 46 1d 3d fe 16 d9 bc
       -0.013801383 -0.022159753 0.038397647 -0.026500221
000390 1f eb 7e bc 92 51 2b bc 0e f9 65 bc 07 6f 39 bd
       -0.015558987 -0.01045646 -0.01403643 -0.0452719
0003a0 a4 23 2c bd 38 6a 67 3c 60 64 3e bd 62 1d 06 bd
       -0.042026177 0.014124446 -0.046482444 -0.032742865
0003b0 b9 4f cc bc 14 8d 8f bd da 9d ff 3c 87 2c b7 3c
       -0.024940358 -0.070093304 0.0312032 0.0223601
0003c0 ad 60 82 3c cc 4f c7 bc 3d 94 29 bd d6 59 0c bd
       0.01591524 -0.024330042 -0.041401137 -0.03426536
0003d0 7b 45 6d bc 29 b3 ad 3c 48 40 d5 3c 84 35 16 bc
       -0.0144818975 0.021203594 0.026031628 -0.009168033
0003e0 c8 8b d9 bb f2 ac d5 3c 1c 9d 52 3b 12 8f a0 bc
       -0.0066389777 0.026083443 0.0032137102 -0.019599471
0003f0 f2 d7 f8 bc 4a a6 55 bc a3 9e 70 bb 0f 4c 91 bb
       -0.030376408 -0.013040135 -0.0036715649 -0.0044341157

fc1.bias f4 [50]
000000 0e 55 48 bd e7 f9 89 3c 2c 37 0e bc f1 83 60 bd
       -0.04890924 0.016842796 -0.008680146 -0.05481333
000010 dc 14 c0 bd 42 9c ff bb 2b 84 f9 bd b5 b4 5d 3e
       -0.093789786 -0.00780061 -0.12183412 0.21650966
000020 4f a3 33 3b d9 71 68 3e 4e 0d 1f be 9a 48 82 bd
       0.0027410572 0.2269968 -0.15532419 -0.06361504
000030 1f 74 65 3e bb a1 a2 3e 11 d2 dd bd 1a 2f ec bc
       0.22407578 0.31764016 -0.108310826 -0.028831054
000040 9c a6 2f 3e 3b f4 ac 3d 08 7f 64 3e e9 44 0e be
       0.171534 0.08445021 0.22314084 -0.13893475
000050 6c 88 11 3e b0 c3 56 3e f0 21 e2 bc 71 6c a2 3a
       0.14212197 0.20973086 -0.027604073 0.0012391937
000060 d3 52 b3 3d cb 18 01 3e fb e9 19 bd e8 32 50 3e
       0.08756032 0.12607114 -0.037576657 0.20331919
000070 c7 b7 4c bd 3c fc 7d 3e 75 fe 88 3d 99 1e 2a bd
       -0.04997995 0.24803251 0.06689159 -0.041533086
000080 a4 33 a0 3e 12 4e e5 3d 92 4b ec 3c 24 9c 6f 3e
       0.312894 0.11196531 0.028844628 0.23399407
000090 99 81 84 3e a0 9c 1d 3d a8 fb a9 3e e6 bb 53 3e
       0.25880125 0.038479447 0.3319981 0.20677146
0000a0 5e 5e 9d 3c f4 d6 02 bc 5a b8 3f bd 43 08 cb bd
       0.019210037 -0.007985819 -0.04680667 -0.09913685
0000b0 18 2e 37 be 65 86 73 3e f0 e0 87 3e 9b 53 be bc
       -0.17888677 0.23781736 0.265388 -0.023233226
0000c0 ce 62 5b bd dc 05 2b 3e
       -0.053561024 0.16701454

fc2.weight f4 [12, 50]
000000 4f fe dc bd 58 d3 ed bd 1e fc 95 3d 84 42 2d bd
       -0.10790693 -0.11612576 0.07323478 -0.042299762
000010 7d 30 0a bc 00 c9 01 be 7c d1 00 be c2 19 c9 be
       -0.008434412 -0.12674332 -0.12579912 -0.39277464
000020 2c d9 1c be 9a b4 bd bd c5 95 9f 3d 0d 84 36 bd
       -0.1531722 -0.09262963 0.07792238 -0.044559527
000030 ab 4d 0f 3e 92 e3 cb bd 98 7f f4 3b be 0a 85 bc
       0.13994472 -0.09955515 0.0074614994 -0.016240474
000040 14 4e df ba 9e c8 d7 bd 50 70 9e 3d 81 b2 4f 3d
       -0.0017036819 -0.105363116 0.07736266 0.050707344
000050 46 c4 cd 3d 84 a0 13 3d 38 04 31 bd 27 22 3f bd
       0.10047202 0.03604175 -0.043216914 -0.04666343
000060 80 4f fc bd 6f 4b 0f 3e 8c 97 fd bd 21 d8 90 3d
       -0.12319851 0.1399362 -0.12382421 0.07072473
000070 73 8f 36 3d ab f8 54 be 39 d2 3a be 9b 5b 00 3e
       0.044570398 -0.20797984 -0.18244256 0.12534945
000080 99 52 c5 bd 36 0e 69 3d 2c d3 c0 bd 97 3b e2 3d
       -0.09634895 0.05689832 -0.09415278 0.11046522
000090 ea 4c b6 be c9 14 4f 3d b9 c9 e5 bd f9 5c 1e 3e
       -0.35605556 0.05055693 -0.11220116 0.15465154
0000a0 06 6a 5c 3d 93 5a a9 3d e0 1c 26 3d 61 23 20 3d
       0.05381205 0.08269229 0.04055488 0.03909624
0000b0 88 1f d0 3d 36 8d 49 be bc db 6a be 31 a8 04 3e
       0.10162264 -0.19682774 -0.22935385 0.12954785
0000c0 58 49 fd bd 40 cf e5 3d 88 9d e7 bc 5b c9 ca 3d
       -0.12367505 0.112211704 -0.028273359 0.09901687
0000d0 e7 7d 00 bb 76 94 38 3d d5 fd 11 bc 9b f4 14 3e
       -0.0019606294 0.04506346 -0.008910616 0.14546435
0000e0 1c 63 84 3a 9d 43 48 be 8f aa 2e bd f0 01 ad 3d
       0.0010100338 -0.19557042 -0.042643126 0.08447635
0000f0 e1 d5 aa 3d 1a ec 6d 3d f0 7f da 3c 6a 81 61 3b
       0.083415754 0.058086492 0.026672333 0.0034409412
000100 9f 60 e7 bc be 35 dc 3d 95 da 50 bd 5e c0 a1 bd
       -0.028244315 0.10752438 -0.050989706 -0.07898019
000110 6b ef 50 3d 23 92 90 3d 8b 0c f1 3c 11 03 14 3d
       0.051009577 0.07059123 0.029424926 0.036135737
000120 3e 39 82 bd c0 03 3e 3d 49 d7 38 3d 4d 20 05 3d
       -0.06358574 0.046390295 0.045127187 0.032501508
000130 b4 b5 db bd f3 ef 47 be 4f e5 2f be b3 7b 89 bd
       -0.107280165 -0.19525127 -0.17177318 -0.06713047
000140 06 5d 83 3d 13 61 23 be cf 91 18 be 58 c9 3b bd
       0.06414227 -0.15955 -0.14899372 -0.045846313
000150 fa e1 3f 3c fd a5 e3 3d 74 04 53 be 6f fa ba 3d
       0.011711592 0.11115644 -0.20607167 0.09129798
000160 be f2 3f be e0 a8 4d 3d eb 12 f2 3d f0 57 29 bd
       -0.18744943 0.05020988 0.118200146 -0.04134363
000170 b1 34 cf bd 44 d7 a2 3d 10 f7 b2 3d 91 5d 3a be
       -0.10117472 0.07951215 0.0873853 -0.18199755
000180 a1 46 6b be 05 43 93 bd af d7 f2 3c 69 07 95 3d
       -0.22976162 -0.07190517 0.029643862 0.07276804
000190 c5 43 ea bd e9 c1 c3 3d 54 c3 4c be 03 10 41 3d
       -0.11438707 0.0955847 -0.19996387 0.04713441
0001a0 79 78 47 b9 d2 60 9f be 71 9f f9 bd db 38 5c 3d
       -0.00019022998 -0.31128556 -0.12188614 0.05376516
0001b0 37 ad 8d 3d ec 07 20 be bd 2d b1 3d b3 7b ac bd
       0.06917804 -0.15628022 0.08651302 -0.08422031
0001c0 7f 51 b1 bd b3 47 da bd 6d 84 cf 3d 05 47 09 be
       -0.08658122 -0.10658207 0.1013268 -0.13405998
0001d0 be d0 9b be 4e de 11 be 3d 23 57 be 38 fb ca 3d
       -0.30432695 -0.14244959 -0.21009536 0.099111974
0001e0 3e 9f 6e be e7 c7 0d be c6 b6 35 3d 52 d2 99 3d
       -0.23302934 -0.13845788 0.04436376 0.075108185
0001f0 64 ea e5 3d 3d bd 00 bc bb d4 0a be 2c 84 89 be
       0.11226347 -0.007857618 -0.13557713 -0.26858652
000200 d8 cb 8f bd 33 80 80 3d af 94 cb 3d f5 9c 0c be
       -0.07021302 0.06274452 0.099404685 -0.1373175
000210 54 40 04 be 10 f4 d4 bd ee 78 95 bd 27 08 46 bd
       -0.12915164 -0.10398114 -0.07298456 -0.04834762
000220 a1 27 45 be 62 20 3d 3d fd b3 df 3c a9 65 3f bd
       -0.19253398 0.04617346 0.027307505 -0.04672781
000230 36 e9 0a be 10 32 fe bc 51 5a 7d 3d 78 de df 3d
       -0.13565525 -0.031029731 0.06185371 0.109311044
000240 80 ca e2 3d b2 26 37 bd 05 2c a3 bb 96 ec 6b bd
       0.1107378 -0.044714637 -0.004979613 -0.057598673
000250 95 ef 50 bd f8 a5 68 3d b9 59 bb bd 89 c1 20 be
       -0.051009733 0.056798905 -0.091479726 -0.15698828
000260 e0 42 92 be 89 c9 9a bd 61 c2 c4 be 88 8c 09 3e
       -0.28566647 -0.07557971 -0.3842955 0.13432515
000270 28 fb 36 bc 5a 72 12 3e 31 2d 47 bd b5 6f 84 be
       -0.011168279 0.14301434 -0.048627082 -0.25866476
000280 9e 65 c3 be 1c 41 ac 3d ed 3d b3 3d 68 da 4b 3e
       -0.38163465 0.08410856 0.08752046 0.19907534
000290 8d 99 bc ba 0a 07 c9 3c 8a 50 8e bd 5e 9e 03 3e
       -0.0014389023 0.02453949 -0.06948955 0.12853381
0002a0 ad 29 75 bd 20 42 09 3e 92 05 18 3e ea b9 36 3e
       -0.0598542 0.13404131 0.14845875 0.17844358
0002b0 25 de f9 3d 09 3b f0 bd 09 16 6c be 4f 3e 7e be
       0.12200574 -0.1173001 -0.2305528 -0.24828456
0002c0 90 4e d3 bc ad a9 48 be 1b 3b bd bd bc 4f 1a be
       -0.025794297 -0.19595976 -0.09239789 -0.15069479
0002d0 f1 1e 34 3e 3e cb ee 3b 97 54 f2 bd 82 85 42 3e
       0.17589928 0.007287412 -0.118325405 0.18996242
0002e0 34 69 84 bd 96 d4 96 be cb 50 48 3e 98 fa 47 3d
       -0.064653784 -0.29459065 0.1956207 0.04882297
0002f0 e7 65 69 3d 0a 6d 50 3e 43 36 72 bd f0 3b 3e 3d
       0.056981947 0.20354095 -0.05913378 0.04644388
000300 f6 af 29 be d0 60 38 be 85 c6 27 be 59 92 5d 3d
       -0.1657103 -0.18005681 -0.16384323 0.054094646
000310 ab fc 63 be 33 73 f8 bd 4c 71 82 3d e1 5d 56 be
       -0.22264354 -0.121313475 0.06369266 -0.2093425
000320 43 55 0d be 5a 85 14 be e3 1f bc bc 06 70 59 bb
       -0.13802056 -0.14503995 -0.022964424 -0.0033178343
000330 db 2b 02 bf 24 59 da bc 4e db 71 bd 16 49 98 be
       -0.5084817 -0.026653834 -0.059047036 -0.2974326
000340 85 8c 25 be dd 4e 8d be 28 8d a7 be 9a 1b 86 3c
       -0.16166885 -0.2759923 -0.3272488 0.016370583
000350 b6 eb a7 3e 5f 32 6e be 1c 87 f6 bd 60 41 fc 3d
       0.3279702 -0.23261403 -0.12037489 0.12317157
000360 7f 70 ea be 41 86 52 3e 1d e7 b0 be 24 96 bd 3d
       -0.45788953 0.20559026 -0.34551325 0.09257153
000370 77 e5 8a be 80 3c 85 bd 22 3c d0 ba f2 33 37 be
       -0.27128193 -0.0650568 -0.0015887062 -0.1789091
000380 73 57 0b be 09 6e 47 be 73 72 93 3d cc c8 6b bc
       -0.13607578 -0.19475569 0.07199564 -0.014391135
000390 8b 26 d3 3c 3c 87 2e 3e f2 e5 5d 3e b6 31 cc 3d
       0.025775215 0.17043775 0.21669748 0.09970419
0003a0 3e 15 ae be a4 e1 f3 bd 74 13 7c be d3 aa 48 3e
       -0.34000582 -0.11908272 -0.24616796 0.19596414
0003b0 76 ef 94 3e 3b b2 99 bc ea d1 b8 be 6e 86 f8 3c
       0.29088944 -0.018761745 -0.36097652 0.030337539
0003c0 45 42 a4 3d 99 e2 a8 3b fe 40 25 be 4a 29 15 be
       0.080204524 0.0051539657 -0.16138074 -0.14566532
0003d0 a9 a9 94 be 1f 00 32 be c9 6e b1 3e d5 fc c9 bd
       -0.2903569 -0.17382859 0.34654835 -0.09862677
0003e0 39 6b 99 bc 39 32 db bc 35 19 1f be fe ef 6b bd
       -0.018727886 -0.026757346 -0.1553696 -0.05760192
0003f0 09 5c b2 be ab 90 27 3b 9d c9 33 be 1e 30 27 be
       -0.34835842 0.0025568407 -0.17557378 -0.16326949

fc2.bias f4 [12]
000000 8f fe 1b bd 9a 10 39 3d bc 52 e5 bd 1a d3 24 be
       -0.038084563 0.045181848 -0.11197421 -0.16096154
000010 26 5f e3 bd 5b ed 08 3d d2 6a b4 3d b7 7b 51 3e
       -0.111021325 0.033429485 0.08809437 0.2045735
000020 44 0e e5 ba c5 6b 2e be dd 38 c3 be 97 fe 99 be
       -0.0017475565 -0.17033298 -0.3812932 -0.3007705
